python/LSTM_8x8bit.tflite (tflite, 120480 bytes, 5 tensors)

LSTM/dense/MatMul i1 [64, 100] scale=0.006090059 zero_point=0
0	0xfc	-0.024360236
1	0x28	0.24360237
2	0xf7	-0.05481053
3	0xe9	-0.14007136
4	0xf6	-0.06090059
5	0x1a	0.15834153
6	0x13	0.11571112
7	0x00	0.0
8	0x24	0.21924213
9	0x1a	0.15834153
10	0xf8	-0.04872047
11	0x0a	0.06090059
12	0xfb	-0.030450296
13	0x12	0.10962106
14	0x01	0.006090059
15	0xfd	-0.018270176
16	0xfd	-0.018270176
17	0xc2	-0.37758365
18	0xf2	-0.08526082
19	0xfb	-0.030450296
20	0x12	0.10962106
21	0xfb	-0.030450296
22	0xff	-0.006090059
23	0xda	-0.23142225
24	0xeb	-0.12789124
25	0x06	0.03654035
26	0xfa	-0.03654035
27	0x00	0.0
28	0x04	0.024360236
29	0xff	-0.006090059
30	0xfb	-0.030450296
31	0x17	0.14007136
32	0x33	0.310593
33	0x41	0.39585382
34	0x31	0.2984129
35	0xe9	-0.14007136
36	0xfc	-0.024360236
37	0x0c	0.0730807
38	0xf8	-0.04872047
39	0x00	0.0
40	0x26	0.23142225
41	0xcd	-0.310593
42	0xfd	-0.018270176
43	0x21	0.20097195
44	0xf7	-0.05481053
45	0xf3	-0.07917076
46	0xf6	-0.06090059
47	0xf6	-0.06090059
48	0x03	0.018270176
49	0xd1	-0.28623277
50	0x08	0.04872047
51	0xfd	-0.018270176
52	0xd8	-0.24360237
53	0xfd	-0.018270176
54	0x03	0.018270176
55	0x04	0.024360236
56	0x15	0.12789124
57	0x03	0.018270176
58	0xe2	-0.18270177
59	0xf3	-0.07917076
60	0xf4	-0.0730807
61	0xfc	-0.024360236
62	0xf2	-0.08526082
63	0xff	-0.006090059
64	0xea	-0.1339813
65	0x03	0.018270176
66	0x36	0.32886317
67	0x16	0.1339813
68	0x2e	0.28014272
69	0xfa	-0.03654035
70	0xe8	-0.1461614
71	0x0d	0.07917076
72	0xe9	-0.14007136
73	0xe6	-0.15834153
74	0x01	0.006090059
75	0xe1	-0.18879183
76	0x00	0.0
77	0xf7	-0.05481053
78	0xfc	-0.024360236
79	0x00	0.0
80	0x17	0.14007136
81	0x2d	0.27405265
82	0x0c	0.0730807
83	0x06	0.03654035
84	0x0a	0.06090059
85	0x1c	0.17052165
86	0xe9	-0.14007136
87	0x00	0.0
88	0x31	0.2984129
89	0xee	-0.10962106
90	0xfc	-0.024360236
91	0xf2	-0.08526082
92	0x15	0.12789124
93	0x08	0.04872047
94	0x04	0.024360236
95	0xad	-0.50547487
96	0xff	-0.006090059
97	0x0e	0.08526082
98	0x33	0.310593
99	0x0a	0.06090059
100	0x03	0.018270176
101	0xf3	-0.07917076
102	0x01	0.006090059
103	0x29	0.24969241
104	0x04	0.024360236
105	0xed	-0.11571112
106	0xd8	-0.24360237
107	0x01	0.006090059
108	0x21	0.20097195
109	0xff	-0.006090059
110	0x1b	0.16443159
111	0x05	0.030450296
112	0x06	0.03654035
113	0xe6	-0.15834153
114	0x01	0.006090059
115	0x00	0.0
116	0x1b	0.16443159
117	0xe1	-0.18879183
118	0x3a	0.3532234
119	0x06	0.03654035
120	0xf2	-0.08526082
121	0x05	0.030450296
122	0x0a	0.06090059
123	0x20	0.19488189
124	0xf7	-0.05481053
125	0x05	0.030450296
126	0x24	0.21924213
127	0xe8	-0.1461614
128	0xf4	-0.0730807
129	0x05	0.030450296
130	0xe2	-0.18270177
131	0xdc	-0.21924213
132	0xea	-0.1339813
133	0xe6	-0.15834153
134	0x09	0.05481053
135	0x0a	0.06090059
136	0x16	0.1339813
137	0xdd	-0.21315207
138	0x1a	0.15834153
139	0x05	0.030450296
140	0x31	0.2984129
141	0xd8	-0.24360237
142	0xf7	-0.05481053
143	0xb9	-0.43239418
144	0x04	0.024360236
145	0x00	0.0
146	0xef	-0.103531
147	0xf3	-0.07917076
148	0x00	0.0
149	0xe4	-0.17052165
150	0xfb	-0.030450296
151	0xf8	-0.04872047
152	0x16	0.1339813
153	0xfa	-0.03654035
154	0x29	0.24969241
155	0x04	0.024360236
156	0xea	-0.1339813
157	0xf7	-0.05481053
158	0x1c	0.17052165
159	0x04	0.024360236
160	0xfd	-0.018270176
161	0xf8	-0.04872047
162	0x2a	0.25578249
163	0x03	0.018270176
164	0xeb	-0.12789124
165	0x08	0.04872047
166	0xe2	-0.18270177
167	0xeb	-0.12789124
168	0x29	0.24969241
169	0xef	-0.103531
170	0x0e	0.08526082
171	0x0d	0.07917076
172	0x12	0.10962106
173	0x01	0.006090059
174	0x04	0.024360236
175	0x1f	0.18879183
176	0x0d	0.07917076
177	0xff	-0.006090059
178	0xfb	-0.030450296
179	0x03	0.018270176
180	0x00	0.0
181	0xf7	-0.05481053
182	0x0c	0.0730807
183	0x20	0.19488189
184	0xf1	-0.09135088
185	0xed	-0.11571112
186	0xfd	-0.018270176
187	0xdc	-0.21924213
188	0xd7	-0.24969241
189	0x24	0.21924213
190	0x20	0.19488189
191	0x13	0.11571112
192	0x0d	0.07917076
193	0x18	0.1461614
194	0x01	0.006090059
195	0xdc	-0.21924213
196	0xff	-0.006090059
197	0x13	0.11571112
198	0x53	0.50547487
199	0x38	0.3410433
200	0x01	0.006090059
201	0x2a	0.25578249
202	0xf8	-0.04872047
203	0xa9	-0.5298351
204	0x0c	0.0730807
205	0xee	-0.10962106
206	0xe6	-0.15834153
207	0x03	0.018270176
208	0x00	0.0
209	0x2f	0.28623277
210	0xfc	-0.024360236
211	0x13	0.11571112
212	0x00	0.0
213	0xfb	-0.030450296
214	0xff	-0.006090059
215	0x00	0.0
216	0xea	-0.1339813
217	0x00	0.0
218	0x0a	0.06090059
219	0x03	0.018270176
220	0x53	0.50547487
221	0xfa	-0.03654035
222	0xf8	-0.04872047
223	0xd8	-0.24360237
224	0x33	0.310593
225	0xf2	-0.08526082
226	0x17	0.14007136
227	0x06	0.03654035
228	0x06	0.03654035
229	0xfb	-0.030450296
230	0xf7	-0.05481053
231	0x0d	0.07917076
232	0x0a	0.06090059
233	0xff	-0.006090059
234	0x1e	0.18270177
235	0x0e	0.08526082
236	0xee	-0.10962106
237	0x0e	0.08526082
238	0x16	0.1339813
239	0xfc	-0.024360236
240	0xf3	-0.07917076
241	0x21	0.20097195
242	0x01	0.006090059
243	0xed	-0.11571112
244	0xfd	-0.018270176
245	0x29	0.24969241
246	0x40	0.38976377
247	0xf4	-0.0730807
248	0x01	0.006090059
249	0xe6	-0.15834153
250	0x35	0.32277313
251	0x08	0.04872047
252	0x08	0.04872047
253	0x03	0.018270176
254	0xfd	-0.018270176
255	0x00	0.0

LSTM/lstm/lstm_cell/BiasAdd/ReadVariableOp i1 [400] scale=0.0072528915 zero_point=-61
0	0xe3	0.23209253
1	0xbb	-0.058023132
2	0xad	-0.15956362
3	0x98	-0.31187433
4	0xa0	-0.2538512
5	0xa2	-0.23934542
6	0x9e	-0.26835698
7	0xdb	0.1740694
8	0xc9	0.04351735
9	0x9d	-0.27560988
10	0xad	-0.15956362
11	0x9c	-0.28286278
12	0xe4	0.23934542
13	0x9a	-0.29736856
14	0xf0	0.32638013
15	0xd6	0.13780494
16	0x9d	-0.27560988
17	0xa0	-0.2538512
18	0xb7	-0.0870347
19	0xd0	0.09428759
20	0x86	-0.44242638
21	0x99	-0.30462146
22	0xab	-0.1740694
23	0xdd	0.18857518
24	0x9e	-0.26835698
25	0xa5	-0.21758674
26	0x96	-0.32638013
27	0xa7	-0.20308097
28	0x8a	-0.4134148
29	0xcb	0.058023132
30	0xac	-0.1668165
31	0x96	-0.32638013
32	0x8c	-0.39890903
33	0xb7	-0.0870347
34	0x82	-0.47143796
35	0x97	-0.31912723
36	0xb2	-0.12329916
37	0xd2	0.10879337
38	0x8d	-0.39165613
39	0xc3	0.0
40	0xae	-0.15231073
41	0xb9	-0.07252891
42	0xd4	0.12329916
43	0xaa	-0.18132229
44	0xd4	0.12329916
45	0x9c	-0.28286278
46	0x90	-0.36989745
47	0x9d	-0.27560988
48	0xdd	0.18857518
49	0xa8	-0.19582807
50	0xa0	-0.2538512
51	0xa4	-0.22483964
52	0x9b	-0.29011565
53	0xc8	0.036264457
54	0x89	-0.4206677
55	0xc5	0.014505783
56	0x98	-0.31187433
57	0xda	0.1668165
58	0xa5	-0.21758674
59	0xaf	-0.14505783
60	0x84	-0.45693216
61	0xc2	-0.0072528915
62	0xaa	-0.18132229
63	0xbd	-0.04351735
64	0xab	-0.1740694
65	0xb8	-0.07978181
66	0xc1	-0.014505783
67	0x97	-0.31912723
68	0x84	-0.45693216
69	0xa4	-0.22483964
70	0x97	-0.31912723
71	0xa6	-0.21033385
72	0x92	-0.35539168
73	0x90	-0.36989745
74	0xcb	0.058023132
75	0x97	-0.31912723
76	0xc0	-0.021758676
77	0xb5	-0.10154048
78	0xc6	0.021758676
79	0xde	0.19582807
80	0x91	-0.36264458
81	0xaf	-0.14505783
82	0xb0	-0.13780494
83	0x9b	-0.29011565
84	0xaa	-0.18132229
85	0x93	-0.3481388
86	0xa4	-0.22483964
87	0xaa	-0.18132229
88	0x9c	-0.28286278
89	0xb2	-0.12329916
90	0x98	-0.31187433
91	0x99	-0.30462146
92	0x8e	-0.38440326
93	0xa0	-0.2538512
94	0xd6	0.13780494
95	0x93	-0.3481388
96	0xad	-0.15956362
97	0x9c	-0.28286278
98	0x8a	-0.4134148
99	0xa6	-0.21033385
100	0x50	1.0226578
101	0x65	1.1749685
102	0x4f	1.0154048
103	0x65	1.1749685
104	0x4e	1.0081519
105	0x66	1.1822213
106	0x5e	1.1241982
107	0x66	1.1822213
108	0x69	1.20398
109	0x58	1.0806808
110	0x68	1.1967272
111	0x58	1.0806808
112	0x4e	1.0081519
113	0x62	1.1532098
114	0x7c	1.341785
115	0x5e	1.1241982
116	0x6c	1.2257386
117	0x61	1.1459569
118	0x74	1.2837619
119	0x57	1.0734279
120	0x6e	1.2402445
121	0x56	1.0661751
122	0x53	1.0444164
123	0x64	1.1677155
124	0x5e	1.1241982
125	0x5b	1.1024395
126	0x68	1.1967272
127	0x61	1.1459569
128	0x5c	1.1096925
129	0x5b	1.1024395
130	0x59	1.0879338
131	0x5d	1.1169453
132	0x65	1.1749685
133	0x75	1.2910147
134	0x5f	1.1314511
135	0x61	1.1459569
136	0x4f	1.0154048
137	0x69	1.20398
138	0x56	1.0661751
139	0x21	0.6817718
140	0x5f	1.1314511
141	0x65	1.1749685
142	0x56	1.0661751
143	0x68	1.1967272
144	0x6e	1.2402445
145	0x5d	1.1169453
146	0x6f	1.2474973
147	0x5f	1.1314511
148	0x5d	1.1169453
149	0x60	1.138704
150	0x5b	1.1024395
151	0x62	1.1532098
152	0x59	1.0879338
153	0x58	1.0806808
154	0x70	1.2547503
155	0x58	1.0806808
156	0x6d	1.2329916
157	0x75	1.2910147
158	0x7f	1.3635436
159	0x5c	1.1096925
160	0x60	1.138704
161	0x55	1.0589222
162	0x66	1.1822213
163	0x4b	0.9863933
164	0x77	1.3055205
165	0x4c	0.99364614
166	0x63	1.1604626
167	0x5e	1.1241982
168	0x5b	1.1024395
169	0x62	1.1532098
170	0x53	1.0444164
171	0x6c	1.2257386
172	0x5e	1.1241982
173	0x4f	1.0154048
174	0x31	0.79781806
175	0x6f	1.2474973
176	0x58	1.0806808
177	0x4d	1.0008991
178	0x3c	0.8775999
179	0x58	1.0806808
180	0x53	1.0444164
181	0x65	1.1749685
182	0x6c	1.2257386
183	0x57	1.0734279
184	0x56	1.0661751
185	0x64	1.1677155
186	0x5f	1.1314511
187	0x4c	0.99364614
188	0x61	1.1459569
189	0x70	1.2547503
190	0x5e	1.1241982
191	0x76	1.2982676
192	0x69	1.20398
193	0x5d	1.1169453
194	0x6b	1.2184858
195	0x5c	1.1096925
196	0x6a	1.2112329
197	0x58	1.0806808
198	0x53	1.0444164
199	0x5f	1.1314511
200	0xe9	0.27560988
201	0xd1	0.10154048
202	0xc2	-0.0072528915
203	0xd4	0.12329916
204	0xc6	0.021758676
205	0xd2	0.10879337
206	0xbd	-0.04351735
207	0x8f	-0.37715036
208	0xab	-0.1740694
209	0xb4	-0.10879337
210	0xc7	0.029011566
211	0xc4	0.0072528915
212	0xa5	-0.21758674
213	0xc8	0.036264457
214	0xaa	-0.18132229
215	0xd1	0.10154048
216	0xb8	-0.07978181
217	0xba	-0.06527603
218	0xa8	-0.19582807
219	0xdf	0.20308097
220	0xb5	-0.10154048
221	0xc4	0.0072528915
222	0xc3	0.0
223	0x80	-0.48594373
224	0xb9	-0.07252891
225	0xbf	-0.029011566
226	0xb7	-0.0870347
227	0xc6	0.021758676
228	0xc1	-0.014505783
229	0xcd	0.07252891
230	0xc8	0.036264457
231	0xbe	-0.036264457
232	0xcb	0.058023132
233	0xb9	-0.07252891
234	0xe8	0.26835698
235	0xe1	0.21758674
236	0xc5	0.014505783
237	0xd6	0.13780494
238	0xc4	0.0072528915
239	0xc5	0.014505783
240	0xc2	-0.0072528915
241	0xc0	-0.021758676
242	0xc8	0.036264457
243	0xd1	0.10154048
244	0xc6	0.021758676
245	0xcd	0.07252891
246	0xc3	0.0
247	0xd7	0.14505783
248	0xd1	0.10154048
249	0xcf	0.0870347
250	0xc6	0.021758676
251	0xbf	-0.029011566
252	0xb5	-0.10154048
253	0xcc	0.06527603
254	0xb8	-0.07978181
255	0xa4	-0.22483964

LSTM/lstm/lstm_cell/MatMul i1 [400, 100] scale=0.0071358266 zero_point=0
0	0x04	0.028543307
1	0x00	0.0
2	0x12	0.12844488
3	0xfc	-0.028543307
4	0xf3	-0.09276575
5	0xee	-0.12844488
6	0x12	0.12844488
7	0xfc	-0.028543307
8	0x27	0.27829725
9	0x09	0.06422244
10	0x12	0.12844488
11	0x1a	0.1855315
12	0x12	0.12844488
13	0xf3	-0.09276575
14	0xfc	-0.028543307
15	0x00	0.0
16	0xe1	-0.22121063
17	0xf3	-0.09276575
18	0xe6	-0.1855315
19	0xfc	-0.028543307
20	0x12	0.12844488
21	0xf3	-0.09276575
22	0x04	0.028543307
23	0xea	-0.15698819
24	0x09	0.06422244
25	0x12	0.12844488
26	0xee	-0.12844488
27	0x04	0.028543307
28	0x09	0.06422244
29	0x0d	0.09276575
30	0x1f	0.22121063
31	0x04	0.028543307
32	0x04	0.028543307
33	0xd4	-0.31397638
34	0x09	0.06422244
35	0x12	0.12844488
36	0xfc	-0.028543307
37	0xdd	-0.24975394
38	0xee	-0.12844488
39	0xee	-0.12844488
40	0xf7	-0.06422244
41	0x04	0.028543307
42	0x09	0.06422244
43	0xd4	-0.31397638
44	0xdd	-0.24975394
45	0xee	-0.12844488
46	0x09	0.06422244
47	0x35	0.3781988
48	0x0d	0.09276575
49	0xf3	-0.09276575
50	0xf7	-0.06422244
51	0xee	-0.12844488
52	0x23	0.24975394
53	0xea	-0.15698819
54	0xf7	-0.06422244
55	0xf3	-0.09276575
56	0xcb	-0.3781988
57	0xfc	-0.028543307
58	0xf3	-0.09276575
59	0x12	0.12844488
60	0xf7	-0.06422244
61	0xe6	-0.1855315
62	0x00	0.0
63	0xf7	-0.06422244
64	0x04	0.028543307
65	0x09	0.06422244
66	0x09	0.06422244
67	0x12	0.12844488
68	0xee	-0.12844488
69	0x04	0.028543307
70	0x1a	0.1855315
71	0x16	0.15698819
72	0x0d	0.09276575
73	0xea	-0.15698819
74	0x12	0.12844488
75	0x00	0.0
76	0x16	0.15698819
77	0xe6	-0.1855315
78	0x09	0.06422244
79	0x0d	0.09276575
80	0xf3	-0.09276575
81	0x1f	0.22121063
82	0xee	-0.12844488
83	0xea	-0.15698819
84	0xfc	-0.028543307
85	0x00	0.0
86	0x1f	0.22121063
87	0x00	0.0
88	0x12	0.12844488
89	0xfc	-0.028543307
90	0x1f	0.22121063
91	0xf3	-0.09276575
92	0x09	0.06422244
93	0xf7	-0.06422244
94	0xee	-0.12844488
95	0x30	0.34251967
96	0xf3	-0.09276575
97	0xf3	-0.09276575
98	0x04	0.028543307
99	0x00	0.0
100	0xfc	-0.028543307
101	0xfc	-0.028543307
102	0x00	0.0
103	0x09	0.06422244
104	0x00	0.0
105	0x00	0.0
106	0x09	0.06422244
107	0xf7	-0.06422244
108	0xf7	-0.06422244
109	0x12	0.12844488
110	0x04	0.028543307
111	0x1f	0.22121063
112	0xf7	-0.06422244
113	0x09	0.06422244
114	0x04	0.028543307
115	0xfc	-0.028543307
116	0xf3	-0.09276575
117	0x09	0.06422244
118	0x04	0.028543307
119	0x0d	0.09276575
120	0x16	0.15698819
121	0x04	0.028543307
122	0x04	0.028543307
123	0xfc	-0.028543307
124	0xfc	-0.028543307
125	0xf3	-0.09276575
126	0x4a	0.5280512
127	0xee	-0.12844488
128	0x00	0.0
129	0x09	0.06422244
130	0xf3	-0.09276575
131	0x09	0.06422244
132	0x12	0.12844488
133	0xf7	-0.06422244
134	0x00	0.0
135	0xf7	-0.06422244
136	0x23	0.24975394
137	0xfc	-0.028543307
138	0xee	-0.12844488
139	0x12	0.12844488
140	0x04	0.028543307
141	0xee	-0.12844488
142	0x0d	0.09276575
143	0xf7	-0.06422244
144	0xfc	-0.028543307
145	0x00	0.0
146	0xea	-0.15698819
147	0x0d	0.09276575
148	0xe6	-0.1855315
149	0x0d	0.09276575
150	0x09	0.06422244
151	0xf3	-0.09276575
152	0x00	0.0
153	0xf7	-0.06422244
154	0x04	0.028543307
155	0xfc	-0.028543307
156	0xea	-0.15698819
157	0xee	-0.12844488
158	0x00	0.0
159	0xfc	-0.028543307
160	0xf7	-0.06422244
161	0x04	0.028543307
162	0x00	0.0
163	0xdd	-0.24975394
164	0x00	0.0
165	0x04	0.028543307
166	0x09	0.06422244
167	0xf3	-0.09276575
168	0x09	0.06422244
169	0xf3	-0.09276575
170	0x00	0.0
171	0x09	0.06422244
172	0x00	0.0
173	0x09	0.06422244
174	0x16	0.15698819
175	0x09	0.06422244
176	0x00	0.0
177	0x00	0.0
178	0xf3	-0.09276575
179	0x00	0.0
180	0x09	0.06422244
181	0x1f	0.22121063
182	0xfc	-0.028543307
183	0x04	0.028543307
184	0xf7	-0.06422244
185	0x09	0.06422244
186	0x04	0.028543307
187	0x00	0.0
188	0xf3	-0.09276575
189	0x04	0.028543307
190	0x12	0.12844488
191	0x00	0.0
192	0xf3	-0.09276575
193	0x04	0.028543307
194	0x00	0.0
195	0xfc	-0.028543307
196	0x09	0.06422244
197	0x09	0.06422244
198	0x0d	0.09276575
199	0x00	0.0
200	0xfc	-0.028543307
201	0x04	0.028543307
202	0x1a	0.1855315
203	0x00	0.0
204	0x04	0.028543307
205	0x04	0.028543307
206	0xee	-0.12844488
207	0x2c	0.31397638
208	0x0d	0.09276575
209	0xd0	-0.34251967
210	0x00	0.0
211	0x16	0.15698819
212	0xa8	-0.62795275
213	0xf3	-0.09276575
214	0xfc	-0.028543307
215	0x0d	0.09276575
216	0x04	0.028543307
217	0x30	0.34251967
218	0x09	0.06422244
219	0xee	-0.12844488
220	0x04	0.028543307
221	0xee	-0.12844488
222	0x12	0.12844488
223	0x04	0.028543307
224	0x0d	0.09276575
225	0x09	0.06422244
226	0xee	-0.12844488
227	0xf7	-0.06422244
228	0x0d	0.09276575
229	0xf7	-0.06422244
230	0xf7	-0.06422244
231	0xf3	-0.09276575
232	0xfc	-0.028543307
233	0x00	0.0
234	0xfc	-0.028543307
235	0xfc	-0.028543307
236	0x1f	0.22121063
237	0x0d	0.09276575
238	0x04	0.028543307
239	0x0d	0.09276575
240	0x04	0.028543307
241	0xf7	-0.06422244
242	0xf3	-0.09276575
243	0xfc	-0.028543307
244	0x0d	0.09276575
245	0xfc	-0.028543307
246	0x23	0.24975394
247	0x1f	0.22121063
248	0x0d	0.09276575
249	0x09	0.06422244
250	0x1f	0.22121063
251	0xf7	-0.06422244
252	0xfc	-0.028543307
253	0x35	0.3781988
254	0x0d	0.09276575
255	0xfc	-0.028543307

LSTM/lstm/lstm_cell/MatMul_11 i1 [400, 100] scale=0.016978346 zero_point=0
0	0x07	0.11884842
1	0xfe	-0.03395669
2	0x07	0.11884842
3	0x00	0.0
4	0x11	0.2886319
5	0xee	-0.30561024
6	0xfc	-0.06791338
7	0xfa	-0.101870075
8	0xe8	-0.4074803
9	0x06	0.101870075
10	0xfe	-0.03395669
11	0xf1	-0.25467518
12	0x00	0.0
13	0x00	0.0
14	0x00	0.0
15	0x09	0.15280512
16	0xec	-0.33956692
17	0x00	0.0
18	0x06	0.101870075
19	0xfe	-0.03395669
20	0x04	0.06791338
21	0xfa	-0.101870075
22	0xf9	-0.11884842
23	0x0b	0.1867618
24	0xfc	-0.06791338
25	0xf1	-0.25467518
26	0x1d	0.49237204
27	0x07	0.11884842
28	0xf9	-0.11884842
29	0xf1	-0.25467518
30	0xf9	-0.11884842
31	0x07	0.11884842
32	0xfc	-0.06791338
33	0x04	0.06791338
34	0x02	0.03395669
35	0x04	0.06791338
36	0x00	0.0
37	0xfc	-0.06791338
38	0xfa	-0.101870075
39	0xfe	-0.03395669
40	0x04	0.06791338
41	0x06	0.101870075
42	0xf5	-0.1867618
43	0x06	0.101870075
44	0xf9	-0.11884842
45	0x06	0.101870075
46	0x0d	0.2207185
47	0xec	-0.33956692
48	0xfe	-0.03395669
49	0x12	0.30561024
50	0xd9	-0.6621555
51	0xf7	-0.15280512
52	0xfe	-0.03395669
53	0xf7	-0.15280512
54	0x12	0.30561024
55	0x09	0.15280512
56	0xf7	-0.15280512
57	0xfc	-0.06791338
58	0x04	0.06791338
59	0xfc	-0.06791338
60	0x07	0.11884842
61	0xfe	-0.03395669
62	0xfe	-0.03395669
63	0x04	0.06791338
64	0xf3	-0.2207185
65	0xfa	-0.101870075
66	0x02	0.03395669
67	0xf1	-0.25467518
68	0x0b	0.1867618
69	0xf5	-0.1867618
70	0x0d	0.2207185
71	0xf3	-0.2207185
72	0x06	0.101870075
73	0xf5	-0.1867618
74	0x09	0.15280512
75	0x02	0.03395669
76	0xf7	-0.15280512
77	0xfe	-0.03395669
78	0xf7	-0.15280512
79	0x04	0.06791338
80	0xfe	-0.03395669
81	0xfc	-0.06791338
82	0x09	0.15280512
83	0x0b	0.1867618
84	0xf7	-0.15280512
85	0xe8	-0.4074803
86	0x00	0.0
87	0x06	0.101870075
88	0xfa	-0.101870075
89	0x07	0.11884842
90	0x0b	0.1867618
91	0xec	-0.33956692
92	0x11	0.2886319
93	0x04	0.06791338
94	0xfc	-0.06791338
95	0x0b	0.1867618
96	0x07	0.11884842
97	0x09	0.15280512
98	0x07	0.11884842
99	0xe4	-0.47539368
100	0xf5	-0.1867618
101	0x4d	1.3073326
102	0xf7	-0.15280512
103	0xfc	-0.06791338
104	0xf7	-0.15280512
105	0x00	0.0
106	0x2a	0.71309054
107	0x0f	0.25467518
108	0x25	0.6281988
109	0x0f	0.25467518
110	0xf5	-0.1867618
111	0xf1	-0.25467518
112	0x0f	0.25467518
113	0xfe	-0.03395669
114	0x18	0.4074803
115	0x1d	0.49237204
116	0xf7	-0.15280512
117	0xfe	-0.03395669
118	0x11	0.2886319
119	0x07	0.11884842
120	0x06	0.101870075
121	0x0d	0.2207185
122	0xf5	-0.1867618
123	0x14	0.33956692
124	0xf1	-0.25467518
125	0x0f	0.25467518
126	0x07	0.11884842
127	0xec	-0.33956692
128	0x04	0.06791338
129	0xe6	-0.441437
130	0x02	0.03395669
131	0xf5	-0.1867618
132	0xe8	-0.4074803
133	0x11	0.2886319
134	0x09	0.15280512
135	0xf3	-0.2207185
136	0x09	0.15280512
137	0xe6	-0.441437
138	0xfc	-0.06791338
139	0x1a	0.441437
140	0xf5	-0.1867618
141	0x02	0.03395669
142	0xea	-0.3735236
143	0x06	0.101870075
144	0x09	0.15280512
145	0xfa	-0.101870075
146	0x12	0.30561024
147	0xec	-0.33956692
148	0xee	-0.30561024
149	0x06	0.101870075
150	0x00	0.0
151	0x1c	0.47539368
152	0xf1	-0.25467518
153	0xfc	-0.06791338
154	0x0b	0.1867618
155	0x0f	0.25467518
156	0x0b	0.1867618
157	0xe4	-0.47539368
158	0x09	0.15280512
159	0xef	-0.2886319
160	0xec	-0.33956692
161	0xec	-0.33956692
162	0xf3	-0.2207185
163	0x12	0.30561024
164	0xfe	-0.03395669
165	0xfc	-0.06791338
166	0x09	0.15280512
167	0xfc	-0.06791338
168	0x02	0.03395669
169	0xfe	-0.03395669
170	0x16	0.3735236
171	0xf3	-0.2207185
172	0x07	0.11884842
173	0x11	0.2886319
174	0x21	0.5602854
175	0x12	0.30561024
176	0xfe	-0.03395669
177	0xfa	-0.101870075
178	0xe3	-0.49237204
179	0x18	0.4074803
180	0x16	0.3735236
181	0x07	0.11884842
182	0x11	0.2886319
183	0x0b	0.1867618
184	0x06	0.101870075
185	0x00	0.0
186	0xf1	-0.25467518
187	0x16	0.3735236
188	0xfa	-0.101870075
189	0x0f	0.25467518
190	0x00	0.0
191	0x0d	0.2207185
192	0x07	0.11884842
193	0x0f	0.25467518
194	0xf9	-0.11884842
195	0x12	0.30561024
196	0x0b	0.1867618
197	0xf7	-0.15280512
198	0x12	0.30561024
199	0x00	0.0
200	0xef	-0.2886319
201	0x04	0.06791338
202	0x07	0.11884842
203	0xfc	-0.06791338
204	0xf7	-0.15280512
205	0xfa	-0.101870075
206	0x06	0.101870075
207	0x0b	0.1867618
208	0x02	0.03395669
209	0x07	0.11884842
210	0x0b	0.1867618
211	0x00	0.0
212	0x0b	0.1867618
213	0xfe	-0.03395669
214	0x0d	0.2207185
215	0x06	0.101870075
216	0x18	0.4074803
217	0xf9	-0.11884842
218	0x0f	0.25467518
219	0x09	0.15280512
220	0x09	0.15280512
221	0x06	0.101870075
222	0xfa	-0.101870075
223	0x0d	0.2207185
224	0xf7	-0.15280512
225	0x14	0.33956692
226	0xfc	-0.06791338
227	0xdd	-0.5942421
228	0xf9	-0.11884842
229	0xf9	-0.11884842
230	0xf3	-0.2207185
231	0xf9	-0.11884842
232	0xf3	-0.2207185
233	0xfc	-0.06791338
234	0x04	0.06791338
235	0xf5	-0.1867618
236	0x0d	0.2207185
237	0xf1	-0.25467518
238	0xf7	-0.15280512
239	0x28	0.67913383
240	0xf1	-0.25467518
241	0xfe	-0.03395669
242	0x06	0.101870075
243	0x0b	0.1867618
244	0x0d	0.2207185
245	0xf7	-0.15280512
246	0x0d	0.2207185
247	0xf5	-0.1867618
248	0xf5	-0.1867618
249	0xf3	-0.2207185
250	0xfc	-0.06791338
251	0x16	0.3735236
252	0xfa	-0.101870075
253	0xe8	-0.4074803
254	0x09	0.15280512
255	0x07	0.11884842

LSTM/conv2d/Conv2D i1 [100, 6, 40, 1]
0	0xf7	-9
1	0x17	23
2	0xf9	-7
3	0xd1	-47
4	0x02	2
5	0x04	4
6	0xfc	-4
7	0xec	-20
8	0xf3	-13
9	0x14	20
10	0xfe	-2
11	0x46	70
12	0xf3	-13
13	0xfe	-2
14	0xf0	-16
15	0x07	7
16	0x00	0
17	0x0e	14
18	0xf9	-7
19	0x10	16
20	0xf7	-9
21	0x05	5
22	0x02	2
23	0x0d	13
24	0x0e	14
25	0xfe	-2
26	0xe7	-25
27	0xf2	-14
28	0xe5	-27
29	0xe5	-27
30	0xf9	-7
31	0x10	16
32	0xfe	-2
33	0x07	7
34	0x12	18
35	0x05	5
36	0x00	0
37	0xf5	-11
38	0xfe	-2
39	0x02	2
40	0xfe	-2
41	0xfe	-2
42	0xfe	-2
43	0x00	0
44	0x12	18
45	0xfe	-2
46	0x02	2
47	0xf3	-13
48	0x0e	14
49	0x07	7
50	0xfc	-4
51	0x5f	95
52	0x0b	11
53	0xe2	-30
54	0xe2	-30
55	0xf2	-14
56	0xe0	-32
57	0xd5	-43
58	0xf0	-16
59	0xeb	-21
60	0x09	9
61	0xeb	-21
62	0xf7	-9
63	0xfc	-4
64	0xee	-18
65	0x0b	11
66	0x04	4
67	0x17	23
68	0x1e	30
69	0x07	7
70	0x15	21
71	0xdc	-36
72	0x05	5
73	0xfe	-2
74	0x0b	11
75	0x20	32
76	0x20	32
77	0x24	36
78	0x15	21
79	0xf9	-7
80	0xf9	-7
81	0xfc	-4
82	0xee	-18
83	0x32	50
84	0xf9	-7
85	0x04	4
86	0xf3	-13
87	0xfe	-2
88	0xeb	-21
89	0xd5	-43
90	0x00	0
91	0x7f	127
92	0x02	2
93	0xe2	-30
94	0xe9	-23
95	0xc5	-59
96	0xee	-18
97	0xec	-20
98	0x0b	11
99	0x02	2
100	0xeb	-21
101	0x00	0
102	0x02	2
103	0xfb	-5
104	0xfb	-5
105	0xe3	-29
106	0xfc	-4
107	0x10	16
108	0x1b	27
109	0x19	25
110	0x04	4
111	0x0d	13
112	0xf2	-14
113	0xec	-20
114	0xd5	-43
115	0xfb	-5
116	0x12	18
117	0x00	0
118	0xf5	-11
119	0xfe	-2
120	0x02	2
121	0xee	-18
122	0x09	9
123	0x24	36
124	0xfb	-5
125	0x1e	30
126	0x24	36
127	0x2f	47
128	0xf0	-16
129	0xf2	-14
130	0xf3	-13
131	0x46	70
132	0x04	4
133	0xf7	-9
134	0xe7	-25
135	0xee	-18
136	0x09	9
137	0x0e	14
138	0x00	0
139	0x02	2
140	0xfe	-2
141	0xfc	-4
142	0x00	0
143	0xf0	-16
144	0xf5	-11
145	0x05	5
146	0x04	4
147	0xfc	-4
148	0x0d	13
149	0x0d	13
150	0x04	4
151	0xfe	-2
152	0xe2	-30
153	0xec	-20
154	0xf0	-16
155	0xee	-18
156	0xd7	-41
157	0xfb	-5
158	0xf9	-7
159	0xfc	-4
160	0xeb	-21
161	0x09	9
162	0x00	0
163	0xec	-20
164	0xf9	-7
165	0x05	5
166	0x04	4
167	0x12	18
168	0xf2	-14
169	0xf3	-13
170	0xee	-18
171	0x14	20
172	0xf0	-16
173	0xe7	-25
174	0xf7	-9
175	0xf3	-13
176	0xf0	-16
177	0xfc	-4
178	0x07	7
179	0x02	2
180	0x00	0
181	0x05	5
182	0xf2	-14
183	0x0d	13
184	0x0e	14
185	0xf3	-13
186	0xf7	-9
187	0xf7	-9
188	0xfb	-5
189	0xf0	-16
190	0x04	4
191	0x02	2
192	0x14	20
193	0xf3	-13
194	0x00	0
195	0xfc	-4
196	0xf9	-7
197	0x00	0
198	0xee	-18
199	0xf2	-14
200	0x14	20
201	0x10	16
202	0x1e	30
203	0xf3	-13
204	0x00	0
205	0xf3	-13
206	0xf5	-11
207	0xec	-20
208	0xec	-20
209	0x0d	13
210	0xce	-50
211	0x1d	29
212	0xe7	-25
213	0x00	0
214	0x0d	13
215	0x29	41
216	0x1e	30
217	0x17	23
218	0xfc	-4
219	0xfb	-5
220	0x00	0
221	0xf5	-11
222	0x0e	14
223	0x17	23
224	0xf5	-11
225	0x14	20
226	0x0e	14
227	0xf3	-13
228	0xfb	-5
229	0xf3	-13
230	0xf2	-14
231	0x05	5
232	0x15	21
233	0x22	34
234	0x17	23
235	0xf9	-7
236	0x04	4
237	0xf2	-14
238	0x1b	27
239	0x17	23
240	0x07	7
241	0x0d	13
242	0x06	6
243	0xfd	-3
244	0x03	3
245	0xf5	-11
246	0xfd	-3
247	0xf7	-9
248	0xf5	-11
249	0xe2	-30
250	0x54	84
251	0xe2	-30
252	0xec	-20
253	0xef	-17
254	0x01	1
255	0xf9	-7
